…
        "msg": "__________________________________________________________________________________________________\nLayer (type)                    Output Shape         Param #     Connected to                     \n\u003d\u003d\u003d\u003d\u003d\u003d\u003d\u003d\u003d\u003d\u003d\u003d\u003d\u003d\u003d\u003d\u003d\u003d\u003d\u003d\u003d\u003d\u003d\u003d\u003d\u003d\u003d\u003d\u003d\u003d\u003d\u003d\u003d\u003d\u003d\u003d\u003d\u003d\u003d\u003d\u003d\u003d\u003d\u003d\u003d\u003d\u003d\u003d\u003d\u003d\u003d\u003d\u003d\u003d\u003d\u003d\u003d\u003d\u003d\u003d\u003d\u003d\u003d\u003d\u003d\u003d\u003d\u003d\u003d\u003d\u003d\u003d\u003d\u003d\u003d\u003d\u003d\u003d\u003d\u003d\u003d\u003d\u003d\u003d\u003d\u003d\u003d\u003d\u003d\u003d\u003d\u003d\u003d\u003d\u003d\u003d\u003d\u003d\nmain_input (InputLayer)         (None, 500)          0                                            \n__________________________________________________________________________________________________\nembedding_1 (Embedding)         (None, 500, 100)     6000000     main_input[0][0]                 \n__________________________________________________________________________________________________\nconv1d_1 (Conv1D)               (None, 500, 128)     38528       embedding_1[0][0]                \n__________________________________________________________________________________________________\nconv1d_2 (Conv1D)               (None, 500, 128)     38528       embedding_1[0][0]                \n__________________________________________________________________________________________________\nconv1d_3 (Conv1D)               (None, 500, 128)     51328       embedding_1[0][0]                \n__________________________________________________________________________________________________\nconv1d_4 (Conv1D)               (None, 500, 128)     51328       embedding_1[0][0]                \n__________________________________________________________________________________________________\nconv1d_5 (Conv1D)               (None, 500, 128)     64128       embedding_1[0][0]                \n__________________________________________________________________________________________________\nconv1d_6 (Conv1D)               (None, 500, 128)     64128       embedding_1[0][0]                \n__________________________________________________________________________________________________\nconv1d_7 (Conv1D)               (None, 500, 128)     76928       embedding_1[0][0]                \n__________________________________________________________________________________________________\nconv1d_8 (Conv1D)               (None, 500, 128)     76928       embedding_1[0][0]                \n__________________________________________________________________________________________________\np_re_lu_1 (PReLU)               (None, 500, 128)     64000       conv1d_1[0][0]                   \n__________________________________________________________________________________________________\np_re_lu_2 (PReLU)               (None, 500, 128)     64000       conv1d_2[0][0]                   \n__________________________________________________________________________________________________\np_re_lu_3 (PReLU)               (None, 500, 128)     64000       conv1d_3[0][0]                   \n__________________________________________________________________________________________________\np_re_lu_4 (PReLU)               (None, 500, 128)     64000       conv1d_4[0][0]                   \n__________________________________________________________________________________________________\np_re_lu_5 (PReLU)               (None, 500, 128)     64000       conv1d_5[0][0]                   \n__________________________________________________________________________________________________\np_re_lu_6 (PReLU)               (None, 500, 128)     64000       conv1d_6[0][0]                   \n__________________________________________________________________________________________________\np_re_lu_7 (PReLU)               (None, 500, 128)     64000       conv1d_7[0][0]                   \n__________________________________________________________________________________________________\np_re_lu_8 (PReLU)               (None, 500, 128)     64000       conv1d_8[0][0]                   \n__________________________________________________________________________________________________\nconcatenate_1 (Concatenate)     (None, 500, 1024)    0           p_re_lu_1[0][0]                  \n                                                                 p_re_lu_2[0][0]                  \n                                                                 p_re_lu_3[0][0]                  \n                                                                 p_re_lu_4[0][0]                  \n                                                      
…
                                 p_re_lu_6[0][0]                  \n                                                                 p_re_lu_7[0][0]                  \n                                                                 p_re_lu_8[0][0]                  \n__________________________________________________________________________________________________\nattention_1 (Attention)         [(None, 1024), (None 1025        concatenate_1[0][0]              \n__________________________________________________________________________________________________\ndense_1 (Dense)                 (None, 256)          262400      attention_1[0][0]                \n__________________________________________________________________________________________________\np_re_lu_9 (PReLU)               (None, 256)          256         dense_1[0][0]                    \n__________________________________________________________________________________________________\ndense_2 (Dense)                 (None, 256)          65792       p_re_lu_9[0][0]                  \n__________________________________________________________________________________________________\np_re_lu_10 (PReLU)              (None, 256)          256         dense_2[0][0]                    \n__________________________________________________________________________________________________\nadd_1 (Add)                     (None, 256)          0           p_re_lu_9[0][0]                  \n                                                                 p_re_lu_10[0][0]                 \n__________________________________________________________________________________________________\ndense_3 (Dense)                 (None, 256)          65792       add_1[0][0]                      \n__________________________________________________________________________________________________\np_re_lu_11 (PReLU)              (None, 256)          256         dense_3[0][0]                    \n__________________________________________________________________________________________________\ndense_4 (Dense)                 (None, 256)          65792       p_re_lu_11[0][0]                 \n__________________________________________________________________________________________________\np_re_lu_12 (PReLU)              (None, 256)          256         dense_4[0][0]                    \n__________________________________________________________________________________________________\nadd_2 (Add)                     (None, 256)          0           p_re_lu_11[0][0]                 \n                                                                 p_re_lu_12[0][0]                 \n__________________________________________________________________________________________________\ndropout_2 (Dropout)             (None, 256)          0           add_2[0][0]                      \n__________________________________________________________________________________________________\ndense_5 (Dense)                 (None, 1)            257         dropout_2[0][0]                  \n\u003d\u003d\u003d\u003d\u003d\u003d\u003d\u003d\u003d\u003d\u003d\u003d\u003d\u003d\u003d\u003d\u003d\u003d\u003d\u003d\u003d\u003d\u003d\u003d\u003d\u003d\u003d\u003d\u003d\u003d\u003d\u003d\u003d\u003d\u003d\u003d\u003d\u003d\u003d\u003d\u003d\u003d\u003d\u003d\u003d\u003d\u003d\u003d\u003d\u003d\u003d\u003d\u003d\u003d\u003d\u003d\u003d\u003d\u003d\u
…
