…
        "msg": "__________________________________________________________________________________________________\nLayer (type)                    Output Shape         Param #     Connected to                     \n\u003d\u003d\u003d\u003d\u003d\u003d\u003d\u003d\u003d\u003d\u003d\u003d\u003d\u003d\u003d\u003d\u003d\u003d\u003d\u003d\u003d\u003d\u003d\u003d\u003d\u003d\u003d\u003d\u003d\u003d\u003d\u003d\u003d\u003d\u003d\u003d\u003d\u003d\u003d\u003d\u003d\u003d\u003d\u003d\u003d\u003d\u003d\u003d\u003d\u003d\u003d\u003d\u003d\u003d\u003d\u003d\u003d\u003d\u003d\u003d\u003d\u003d\u003d\u003d\u003d\u003d\u003d\u003d\u003d\u003d\u003d\u003d\u003d\u003d\u003d\u003d\u003d\u003d\u003d\u003d\u003d\u003d\u003d\u003d\u003d\u003d\u003d\u003d\u003d\u003d\u003d\u003d\u003d\u003d\u003d\u003d\u003d\u003d\nmain_input (InputLayer)         (None, 925)          0                                            \n__________________________________________________________________________________________________\nembedding_2 (Embedding)         (None, 925, 100)     6000000     main_input[0][0]                 \n__________________________________________________________________________________________________\nconv1d_9 (Conv1D)               (None, 925, 128)     38528       embedding_2[0][0]                \n__________________________________________________________________________________________________\nconv1d_10 (Conv1D)              (None, 925, 128)     38528       embedding_2[0][0]                \n__________________________________________________________________________________________________\nconv1d_11 (Conv1D)              (None, 925, 128)     51328       embedding_2[0][0]                \n__________________________________________________________________________________________________\nconv1d_12 (Conv1D)              (None, 925, 128)     51328       embedding_2[0][0]                \n__________________________________________________________________________________________________\nconv1d_13 (Conv1D)              (None, 925, 128)     64128       embedding_2[0][0]                \n__________________________________________________________________________________________________\nconv1d_14 (Conv1D)              (None, 925, 128)     64128       embedding_2[0][0]                \n__________________________________________________________________________________________________\nconv1d_15 (Conv1D)              (None, 925, 128)     76928       embedding_2[0][0]                \n__________________________________________________________________________________________________\nconv1d_16 (Conv1D)              (None, 925, 128)     76928       embedding_2[0][0]                \n__________________________________________________________________________________________________\np_re_lu_13 (PReLU)              (None, 925, 128)     118400      conv1d_9[0][0]                   \n__________________________________________________________________________________________________\np_re_lu_14 (PReLU)              (None, 925, 128)     118400      conv1d_10[0][0]                  \n__________________________________________________________________________________________________\np_re_lu_15 (PReLU)              (None, 925, 128)     118400      conv1d_11[0][0]                  \n__________________________________________________________________________________________________\np_re_lu_16 (PReLU)              (None, 925, 128)     118400      conv1d_12[0][0]                  \n__________________________________________________________________________________________________\np_re_lu_17 (PReLU)              (None, 925, 128)     118400      conv1d_13[0][0]                  \n__________________________________________________________________________________________________\np_re_lu_18 (PReLU)              (None, 925, 128)     118400      conv1d_14[0][0]                  \n__________________________________________________________________________________________________\np_re_lu_19 (PReLU)              (None, 925, 128)     118400      conv1d_15[0][0]                  \n__________________________________________________________________________________________________\np_re_lu_20 (PReLU)              (None, 925, 128)     118400      conv1d_16[0][0]                  \n__________________________________________________________________________________________________\nconcatenate_2 (Concatenate)     (None, 925, 1024)    0           p_re_lu_13[0][0]                 \n                                                                 p_re_lu_14[0][0]                 \n                                                                 p_re_lu_15[0][0]                 \n                                                                 p_re_lu_16[0][0]                 \n                                                      
…
                                 p_re_lu_18[0][0]                 \n                                                                 p_re_lu_19[0][0]                 \n                                                                 p_re_lu_20[0][0]                 \n__________________________________________________________________________________________________\nattention_2 (Attention)         [(None, 1024), (None 1025        concatenate_2[0][0]              \n__________________________________________________________________________________________________\ndense_6 (Dense)                 (None, 128)          131200      attention_2[0][0]                \n__________________________________________________________________________________________________\np_re_lu_21 (PReLU)              (None, 128)          128         dense_6[0][0]                    \n__________________________________________________________________________________________________\ndense_7 (Dense)                 (None, 128)          16512       p_re_lu_21[0][0]                 \n__________________________________________________________________________________________________\np_re_lu_22 (PReLU)              (None, 128)          128         dense_7[0][0]                    \n__________________________________________________________________________________________________\nadd_3 (Add)                     (None, 128)          0           p_re_lu_21[0][0]                 \n                                                                 p_re_lu_22[0][0]                 \n__________________________________________________________________________________________________\ndense_8 (Dense)                 (None, 128)          16512       add_3[0][0]                      \n__________________________________________________________________________________________________\np_re_lu_23 (PReLU)              (None, 128)          128         dense_8[0][0]                    \n__________________________________________________________________________________________________\ndense_9 (Dense)                 (None, 128)          16512       p_re_lu_23[0][0]                 \n__________________________________________________________________________________________________\np_re_lu_24 (PReLU)              (None, 128)          128         dense_9[0][0]                    \n__________________________________________________________________________________________________\nadd_4 (Add)                     (None, 128)          0           p_re_lu_23[0][0]                 \n                                                                 p_re_lu_24[0][0]                 \n__________________________________________________________________________________________________\ndropout_4 (Dropout)             (None, 128)          0           add_4[0][0]                      \n__________________________________________________________________________________________________\ndense_10 (Dense)                (None, 1)            129         dropout_4[0][0]                  \n\u003d\u003d\u003d\u003d\u003d\u003d\u003d\u003d\u003d\u003d\u003d\u003d\u003d\u003d\u003d\u003d\u003d\u003d\u003d\u003d\u003d\u003d\u003d\u003d\u003d\u003d\u003d\u003d\u003d\u003d\u003d\u003d\u003d\u003d\u003d\u003d\u003d\u003d\u003d\u003d\u003d\u003d\u003d\u003d\u003d\u003d\u003d\u003d\u003d\u003d\u003d\u003d\u003d\u003d\u003d\u003d\u003d\u003d\u003d\u
…
